…
[09:32:56.490730] Dataset ImageFolder
    Number of datapoints: 50000
    Root location: /dataset/ImageNet2012/val
    StandardTransform
Transform: Compose(
               Resize(size=256, interpolation=bicubic, max_size=None, antialias=None)
               CenterCrop(size=(224, 224))
               ToTensor()
               Normalize(mean=(0.485, 0.456, 0.406), std=(0.229, 0.224, 0.225))
           )
[09:32:56.491409] Sampler_train = <torch.utils.data.distributed.DistributedSampler object at 0x7f844a5d8df0>
[09:32:57.380418] Model = spiking_transformer(
  (patch_embed1): PatchEmbedInit(
    (proj_conv): Conv2d(3, 96, kernel_size=(3, 3), stride=(1, 1), padding=(1, 1), bias=False)
    (proj_bn): BatchNorm2d(96, eps=1e-05, momentum=0.1, affine=True, track_running_stats=True)
    (proj_maxpool): MaxPool2d(kernel_size=3, stride=2, padding=1, dilation=1, ceil_mode=False)
    (proj_lif): MultiStepLIFNode(
      v_threshold=1.0, v_reset=0.0, detach_reset=True, tau=2.0, backend=cupy
      (surrogate_function): Sigmoid(alpha=4.0, spiking=True)
    )
    (proj1_conv): Conv2d(96, 192, kernel_size=(3, 3), stride=(1, 1), padding=(1, 1), bias=False)
    (proj1_bn): BatchNorm2d(192, eps=1e-05, momentum=0.1, affine=True, track_running_stats=True)
    (proj1_maxpool): MaxPool2d(kernel_size=3, stride=2, padding=1, dilation=1, ceil_mode=False)
    (proj1_lif): MultiStepLIFNode(
      v_threshold=1.0, v_reset=0.0, detach_reset=True, tau=2.0, backend=cupy
      (surrogate_function): Sigmoid(alpha=4.0, spiking=True)
    )
    (proj2_conv): Conv2d(192, 192, kernel_size=(3, 3), stride=(1, 1), padding=(1, 1), bias=False)
    (proj2_bn): BatchNorm2d(192, eps=1e-05, momentum=0.1, affine=True, track_running_stats=True)
    (proj2_lif): MultiStepLIFNode(
      v_threshold=1.0, v_reset=0.0, detach_reset=True, tau=2.0, backend=cupy
      (surrogate_function): Sigmoid(alpha=4.0, spiking=True)
    )
    (proj_res_conv): Conv2d(96, 192, kernel_size=(1, 1), stride=(2, 2), bias=False)
    (proj_res_bn): BatchNorm2d(192, eps=1e-05, momentum=0.1, affine=True, track_running_stats=True)
    (proj_res_lif): MultiStepLIFNode(
      v_threshold=1.0, v_reset=0.0, detach_reset=True, tau=2.0, backend=cupy
      (surrogate_function): Sigmoid(alpha=4.0, spiking=True)
    )
  )
  (patch_embed2): PatchEmbeddingStage(
    (proj3_conv): Conv2d(192, 384, kernel_size=(3, 3), stride=(1, 1), padding=(1, 1), bias=False)
    (proj3_bn): BatchNorm2d(384, eps=1e-05, momentum=0.1, affine=True, track_running_stats=True)
    (proj3_maxpool): MaxPool2d(kernel_size=3, stride=2, padding=1, dilation=1, ceil_mode=False)
    (proj3_lif): MultiStepLIFNode(
      v_threshold=1.0, v_reset=0.0, detach_reset=True, tau=2.0, backend=cupy
      (surrogate_function): Sigmoid(alpha=4.0, spiking=True)
    )
    (proj4_conv): Conv2d(384, 384, kernel_size=(3, 3), stride=(1, 1), padding=(1, 1), bias=False)
    (proj4_bn): BatchNorm2d(384, eps=1e-05, momentum=0.1, affine=True, track_running_stats=True)
    (proj4_lif): MultiStepLIFNode(
      v_threshold=1.0, v_reset=0.0, detach_reset=True, tau=2.0, backend=cupy
      (surrogate_function): Sigmoid(alpha=4.0, spiking=True)
    )
    (proj_res_conv): Conv2d(192, 384, kernel_size=(1, 1), stride=(2, 2), bias=False)
    (proj_res_bn): BatchNorm2d(384, eps=1e-05, momentum=0.1, affine=True, track_running_stats=True)
    (proj_res_lif): MultiStepLIFNode(
      v_threshold=1.0, v_reset=0.0, detach_reset=True, tau=2.0, backend=cupy
      (surrogate_function): Sigmoid(alpha=4.0, spiking=True)
    )
  )
  (patch_embed3): PatchEmbeddingStage(
    (proj3_conv): Conv2d(384, 768, kernel_size=(3, 3), stride=(1, 1), padding=(1, 1), bias=False)
    (proj3_bn): BatchNorm2d(768, eps=1e-05, momentum=0.1, affine=True, track_running_stats=True)
    (proj3_maxpool): MaxPool2d(kernel_size=3, stride=2, padding=1, dilation=1, ceil_mode=False)
    (proj3_lif): MultiStepLIFNode(
      v_threshold=1.0, v_reset=0.0, detach_reset=True, tau=2.0, backend=cupy
      (surrogate_function): Sigmoid(alpha=4.0, spiking=True)
    )
    (proj4_conv): Conv2d(768, 768, kernel_size=(3, 3), stride=(1, 1), padding=(1, 1), bias=False)
    (proj4_bn): BatchNorm2d(768, eps=1e-05, momentum=0.1, affine=True, track_running_stats=True)
    (proj4_lif): MultiStepLIFNode(
      v_threshold=1.0, v_reset=0.0, detach_reset=True, tau=2.0, backend=cupy
      (surrogate_function): Sigmoid(alpha=4.0, spiking=True)
    )
    (proj_res_conv): Conv2d(384, 768, kernel_size=(1, 1), stride=(2, 2), bias=False)
    (proj_res_bn): BatchNorm2d(768, eps=1e-05, momentum=0.1, affine=True, track_running_stats=True)
    (proj_res_lif): MultiStepLIFNode(
      v_threshold=1.0, v_reset=0.0, detach_reset=True, tau=2.0, backend=cupy
      (surrogate_function): Sigmoid(alpha=4.0, spiking=True)
    )
  )
  (stage1): ModuleList(
    (0): TokenSpikingTransformer(
      (tssa): Token_QK_Attention(
        (q_conv): Conv1d(192, 192, kernel_size=(1,), stride=(1,), bias=False)
        (q_bn): BatchNorm1d(192, eps=1e-05, momentum=0.1, affine=True, track_running_stats=True)
        (q_lif): MultiStepLIFNode(
          v_threshold=1.0, v_reset=0.0, detach_reset=True, tau=2.0, backend=cupy
          (surrogate_function): Sigmoid(alpha=4.0, spiking=True)
        )
        (k_conv): Conv1d(192, 192, kernel_size=(1,), stride=(1,), bias=False)
        (k_bn): BatchNorm1d(192, eps=1e-05, momentum=0.1, affine=True, track_running_stats=True)
        (k_lif): MultiStepLIFNode(
          v_threshold=1.0, v_reset=0.0, detach_reset=True, tau=2.0, backend=cupy
          (surrogate_function): Sigmoid(alpha=4.0, spiking=True)
        )
        (attn_lif): MultiStepLIFNode(
          v_threshold=0.5, v_reset=0.0, detach_reset=True, tau=2.0, backend=cupy
          (surrogate_function): Sigmoid(alpha=4.0, spiking=True)
        )
        (proj_conv): Conv1d(192, 192, kernel_size=(1,), stride=(1,))
        (proj_bn): BatchNorm1d(192, eps=1e-05, momentum=0.1, affine=True, track_running_stats=True)
        (proj_lif): MultiStepLIFNode(
          v_threshold=1.0, v_reset=0.0, detach_reset=True, tau=2.0, backend=cupy
          (surrogate_function): Sigmoid(alpha=4.0, spiking=True)
        )
      )
      (mlp): MLP(
        (fc1_conv): Conv2d(192, 768, kernel_size=(1, 1), stride=(1, 1))
        (fc1_bn): BatchNorm2d(768, eps=1e-05, momentum=0.1, affine=True, track_running_stats=True)
        (fc1_lif): MultiStepLIFNode(
          v_threshold=1.0, v_reset=0.0, detach_reset=True, tau=2.0, backend=cupy
          (surrogate_function): Sigmoid(alpha=4.0, spiking=True)
        )
        (fc2_conv): Conv2d(768, 192, kernel_size=(1, 1), stride=(1, 1))
        (fc2_bn): BatchNorm2d(192, eps=1e-05, momentum=0.1, affine=True, track_running_stats=True)
        (fc2_lif): MultiStepLIFNode(
          v_threshold=1.0, v_reset=0.0, detach_reset=True, tau=2.0, backend=cupy
          (surrogate_function): Sigmoid(alpha=4.0, spiking=True)
        )
      )
    )
  )
  (stage2): ModuleList(
    (0): TokenSpikingTransformer(
      (tssa): Token_QK_Attention(
        (q_conv): Conv1d(384, 384, kernel_size=(1,), stride=(1,), bias=False)
        (q_bn): BatchNorm1d(384, eps=1e-05, momentum=0.1, affine=True, track_running_stats=True)
        (q_lif): MultiStepLIFNode(
          v_threshold=1.0, v_reset=0.0, detach_reset=True, tau=2.0, backend=cupy
          (surrogate_function): Sigmoid(alpha=4.0, spiking=True)
        )
        (k_conv): Conv1d(384, 384, kernel_size=(1,), stride=(1,), bias=False)
        (k_bn): BatchNorm1d(384, eps=1e-05, momentum=0.1, affine=True, track_running_stats=True)
        (k_lif): MultiStepLIFNode(
          v_threshold=1.0, v_reset=0.0, detach_reset=True, tau=2.0, backend=cupy
          (surrogate_function): Sigmoid(alpha=4.0, spiking=True)
        )
        (attn_lif): MultiStepLIFNode(
          v_threshold=0.5, v_reset=0.0, detach_reset=True, tau=2.0, backend=cupy
          (surrogate_function): Sigmoid(alpha=4.0, spiking=True)
        )
        (proj_conv): Conv1d(384, 384, kernel_size=(1,), stride=(1,))
        (proj_bn): BatchNorm1d(384, eps=1e-05, momentum=0.1, affine=True, track_running_stats=True)
        (proj_lif): MultiStepLIFNode(
          v_threshold=1.0, v_reset=0.0, detach_reset=True, tau=2.0, backend=cupy
          (surrogate_function): Sigmoid(alpha=4.0, spiking=True)
        )
      )
      (mlp): MLP(
        (fc1_conv): Conv2d(384, 1536, kernel_size=(1, 1), stride=(1, 1))
        (fc1_bn): BatchNorm2d(1536, eps=1e-05, momentum=0.1, affine=True, track_running_stats=True)
        (fc1_lif): MultiStepLIFNode(
          v_threshold=1.0, v_reset=0.0, detach_reset=True, tau=2.0, backend=cupy
          (surrogate_function): Sigmoid(alpha=4.0, spiking=True)
        )
        (fc2_conv): Conv2d(1536, 384, kernel_size=(1, 1), stride=(1, 1))
        (fc2_bn): BatchNorm2d(384, eps=1e-05, momentum=0.1, affine=True, track_running_stats=True)
        (fc2_lif): MultiStepLIFNode(
          v_threshold=1.0, v_reset=0.0, detach_reset=True, tau=2.0, backend=cupy
          (surrogate_function): Sigmoid(alpha=4.0, spiking=True)
        )
      )
    )
    (1): TokenSpikingTransformer(
      (tssa): Token_QK_Attention(
        (q_conv): Conv1d(384, 384, kernel_size=(1,), stride=(1,), bias=False)
        (q_bn): BatchNorm1d(384, eps=1e-05, momentum=0.1, affine=True, track_running_stats=True)
        (q_lif): MultiStepLIFNode(
          v_threshold=1.0, v_reset=0.0, detach_reset=True, tau=2.0, backend=cupy
          (surrogate_function): Sigmoid(alpha=4.0, spiking=True)
        )
        (k_conv): Conv1d(384, 384, kernel_size=(1,), stride=(1,), bias=False)
        (k_bn): BatchNorm1d(384, eps=1e-05, momentum=0.1, affine=True, track_running_stats=True)
        (k_lif): MultiStepLIFNode(
          v_threshold=1.0, v_reset=0.0, detach_reset=True, tau=2.0, backend=cupy
          (surrogate_function): Sigmoid(alpha=4.0, spiking=True)
        )
        (attn_lif): MultiStepLIFNode(
          v_threshold=0.5, v_reset=0.0, detach_reset=True, tau=2.0, backend=cupy
          (surrogate_function): Sigmoid(alpha=4.0, spiking=True)
        )
        (proj_conv): Conv1d(384, 384, kernel_size=(1,), stride=(1,))
        (proj_bn): BatchNorm1d(384, eps=1e-05, momentum=0.1, affine=True, track_running_stats=True)
        (proj_lif): MultiStepLIFNode(
          v_threshold=1.0, v_reset=0.0, detach_reset=True, tau=2.0, backend=cupy
          (surrogate_function): Sigmoid(alpha=4.0, spiking=True)
        )
      )
      (mlp): MLP(
        (fc1_conv): Conv2d(384, 1536, kernel_size=(1, 1), stride=(1, 1))
        (fc1_bn): BatchNorm2d(1536, eps=1e-05, momentum=0.1, affine=True, track_running_stats=True)
        (fc1_lif): MultiStepLIFNode(
          v_threshold=1.0, v_reset=0.0, detach_reset=True, tau=2.0, backend=cupy
          (surrogate_function): Sigmoid(alpha=4.0, spiking=True)
        )
        (fc2_conv): Conv2d(1536, 384, kernel_size=(1, 1), stride=(1, 1))
        (fc2_bn): BatchNorm2d(384, eps=1e-05, momentum=0.1, affine=True, track_running_stats=True)
        (fc2_lif): MultiStepLIFNode(
          v_threshold=1.0, v_reset=0.0, detach_reset=True, tau=2.0, backend=cupy
          (surrogate_function): Sigmoid(alpha=4.0, spiking=True)
        )
      )
    )
  )
  (stage3): ModuleList(
    (0): SpikingTransformer(
      (attn): Spiking_Self_Attention(
        (q_conv): Conv1d(768, 768, kernel_size=(1,), stride=(1,), bias=False)
        (q_bn): BatchNorm1d(768, eps=1e-05, momentum=0.1, affine=True, track_running_stats=True)
        (q_lif): MultiStepLIFNode(
          v_threshold=1.0, v_reset=0.0, detach_reset=True, tau=2.0, backend=cupy
          (surrogate_function): Sigmoid(alpha=4.0, spiking=True)
        )
        (k_conv): Conv1d(768, 768, kernel_size=(1,), stride=(1,), bias=False)
        (k_bn): BatchNorm1d(768, eps=1e-05, momentum=0.1, affine=True, track_running_stats=True)
        (k_lif): MultiStepLIFNode(
          v_threshold=1.0, v_reset=0.0, detach_reset=True, tau=2.0, backend=cupy
          (surrogate_function): Sigmoid(alpha=4.0, spiking=True)
        )
        (v_conv): Conv1d(768, 768, kernel_size=(1,), stride=(1,), bias=False)
        (v_bn): BatchNorm1d(768, eps=1e-05, momentum=0.1, affine=True, track_running_stats=True)
        (v_lif): MultiStepLIFNode(
          v_threshold=1.0, v_reset=0.0, detach_reset=True, tau=2.0, backend=cupy
          (surrogate_function): Sigmoid(alpha=4.0, spiking=True)
        )
        (attn_lif): MultiStepLIFNode(
          v_threshold=0.5, v_reset=0.0, detach_reset=True, tau=2.0, backend=cupy
          (surrogate_function): Sigmoid(alpha=4.0, spiking=True)
        )
        (proj_conv): Conv1d(768, 768, kernel_size=(1,), stride=(1,))
        (proj_bn): BatchNorm1d(768, eps=1e-05, momentum=0.1, affine=True, track_running_stats=True)
        (proj_lif): MultiStepLIFNode(
          v_threshold=1.0, v_reset=0.0, detach_reset=True, tau=2.0, backend=cupy
          (surrogate_function): Sigmoid(alpha=4.0, spiking=True)
        )
        (qkv_mp): MaxPool1d(kernel_size=4, stride=4, padding=0, dilation=1, ceil_mode=False)
      )
      (mlp): MLP(
        (fc1_conv): Conv2d(768, 3072, kernel_size=(1, 1), stride=(1, 1))
        (fc1_bn): BatchNorm2d(3072, eps=1e-05, momentum=0.1, affine=True, track_running_stats=True)
        (fc1_lif): MultiStepLIFNode(
          v_threshold=1.0, v_reset=0.0, detach_reset=True, tau=2.0, backend=cupy
          (surrogate_function): Sigmoid(alpha=4.0, spiking=True)
        )
        (fc2_conv): Conv2d(3072, 768, kernel_size=(1, 1), stride=(1, 1))
        (fc2_bn): BatchNorm2d(768, eps=1e-05, momentum=0.1, affine=True, track_running_stats=True)
        (fc2_lif): MultiStepLIFNode(
          v_threshold=1.0, v_reset=0.0, detach_reset=True, tau=2.0, backend=cupy
          (surrogate_function): Sigmoid(alpha=4.0, spiking=True)
        )
      )
    )
    (1): SpikingTransformer(
      (attn): Spiking_Self_Attention(
        (q_conv): Conv1d(768, 768, kernel_size=(1,), stride=(1,), bias=False)
        (q_bn): BatchNorm1d(768, eps=1e-05, momentum=0.1, affine=True, track_running_stats=True)
        (q_lif): MultiStepLIFNode(
          v_threshold=1.0, v_reset=0.0, detach_reset=True, tau=2.0, backend=cupy
          (surrogate_function): Sigmoid(alpha=4.0, spiking=True)
        )
        (k_conv): Conv1d(768, 768, kernel_size=(1,), stride=(1,), bias=False)
        (k_bn): BatchNorm1d(768, eps=1e-05, momentum=0.1, affine=True, track_running_stats=True)
        (k_lif): MultiStepLIFNode(
          v_threshold=1.0, v_reset=0.0, detach_reset=True, tau=2.0, backend=cupy
          (surrogate_function): Sigmoid(alpha=4.0, spiking=True)
        )
        (v_conv): Conv1d(768, 768, kernel_size=(1,), stride=(1,), bias=False)
        (v_bn): BatchNorm1d(768, eps=1e-05, momentum=0.1, affine=True, track_running_stats=True)
        (v_lif): MultiStepLIFNode(
          v_threshold=1.0, v_reset=0.0, detach_reset=True, tau=2.0, backend=cupy
          (surrogate_function): Sigmoid(alpha=4.0, spiking=True)
        )
        (attn_lif): MultiStepLIFNode(
          v_threshold=0.5, v_reset=0.0, detach_reset=True, tau=2.0, backend=cupy
          (surrogate_function): Sigmoid(alpha=4.0, spiking=True)
        )
        (proj_conv): Conv1d(768, 768, kernel_size=(1,), stride=(1,))
        (proj_bn): BatchNorm1d(768, eps=1e-05, momentum=0.1, affine=True, track_running_stats=True)
        (proj_lif): MultiStepLIFNode(
          v_threshold=1.0, v_reset=0.0, detach_reset=True, tau=2.0, backend=cupy
          (surrogate_function): Sigmoid(alpha=4.0, spiking=True)
        )
        (qkv_mp): MaxPool1d(kernel_size=4, stride=4, padding=0, dilation=1, ceil_mode=False)
      )
      (mlp): MLP(
        (fc1_conv): Conv2d(768, 3072, kernel_size=(1, 1), stride=(1, 1))
        (fc1_bn): BatchNorm2d(3072, eps=1e-05, momentum=0.1, affine=True, track_running_stats=True)
        (fc1_lif): MultiStepLIFNode(
          v_threshold=1.0, v_reset=0.0, detach_reset=True, tau=2.0, backend=cupy
          (surrogate_function): Sigmoid(alpha=4.0, spiking=True)
        )
        (fc2_conv): Conv2d(3072, 768, kernel_size=(1, 1), stride=(1, 1))
        (fc2_bn): BatchNorm2d(768, eps=1e-05, momentum=0.1, affine=True, track_running_stats=True)
        (fc2_lif): MultiStepLIFNode(
          v_threshold=1.0, v_reset=0.0, detach_reset=True, tau=2.0, backend=cupy
          (surrogate_function): Sigmoid(alpha=4.0, spiking=True)
        )
      )
    )
    (2): SpikingTransformer(
      (attn): Spiking_Self_Attention(
        (q_conv): Conv1d(768, 768, kernel_size=(1,), stride=(1,), bias=False)
        (q_bn): BatchNorm1d(768, eps=1e-05, momentum=0.1, affine=True, track_running_stats=True)
        (q_lif): MultiStepLIFNode(
          v_threshold=1.0, v_reset=0.0, detach_reset=True, tau=2.0, backend=cupy
          (surrogate_function): Sigmoid(alpha=4.0, spiking=True)
        )
        (k_conv): Conv1d(768, 768, kernel_size=(1,), stride=(1,), bias=False)
        (k_bn): BatchNorm1d(768, eps=1e-05, momentum=0.1, affine=True, track_running_stats=True)
        (k_lif): MultiStepLIFNode(
          v_threshold=1.0, v_reset=0.0, detach_reset=True, tau=2.0, backend=cupy
          (surrogate_function): Sigmoid(alpha=4.0, spiking=True)
        )
        (v_conv): Conv1d(768, 768, kernel_size=(1,), stride=(1,), bias=False)
        (v_bn): BatchNorm1d(768, eps=1e-05, momentum=0.1, affine=True, track_running_stats=True)
        (v_lif): MultiStepLIFNode(
          v_threshold=1.0, v_reset=0.0, detach_reset=True, tau=2.0, backend=cupy
          (surrogate_function): Sigmoid(alpha=4.0, spiking=True)
        )
        (attn_lif): MultiStepLIFNode(
          v_threshold=0.5, v_reset=0.0, detach_reset=True, tau=2.0, backend=cupy
          (surrogate_function): Sigmoid(alpha=4.0, spiking=True)
        )
        (proj_conv): Conv1d(768, 768, kernel_size=(1,), stride=(1,))
        (proj_bn): BatchNorm1d(768, eps=1e-05, momentum=0.1, affine=True, track_running_stats=True)
        (proj_lif): MultiStepLIFNode(
          v_threshold=1.0, v_reset=0.0, detach_reset=True, tau=2.0, backend=cupy
          (surrogate_function): Sigmoid(alpha=4.0, spiking=True)
        )
        (qkv_mp): MaxPool1d(kernel_size=4, stride=4, padding=0, dilation=1, ceil_mode=False)
      )
      (mlp): MLP(
        (fc1_conv): Conv2d(768, 3072, kernel_size=(1, 1), stride=(1, 1))
        (fc1_bn): BatchNorm2d(3072, eps=1e-05, momentum=0.1, affine=True, track_running_stats=True)
        (fc1_lif): MultiStepLIFNode(
          v_threshold=1.0, v_reset=0.0, detach_reset=True, tau=2.0, backend=cupy
          (surrogate_function): Sigmoid(alpha=4.0, spiking=True)
        )
        (fc2_conv): Conv2d(3072, 768, kernel_size=(1, 1), stride=(1, 1))
        (fc2_bn): BatchNorm2d(768, eps=1e-05, momentum=0.1, affine=True, track_running_stats=True)
        (fc2_lif): MultiStepLIFNode(
          v_threshold=1.0, v_reset=0.0, detach_reset=True, tau=2.0, backend=cupy
          (surrogate_function): Sigmoid(alpha=4.0, spiking=True)
        )
      )
    )
    (3): SpikingTransformer(
      (attn): Spiking_Self_Attention(
        (q_conv): Conv1d(768, 768, kernel_size=(1,), stride=(1,), bias=False)
        (q_bn): BatchNorm1d(768, eps=1e-05, momentum=0.1, affine=True, track_running_stats=True)
        (q_lif): MultiStepLIFNode(
          v_threshold=1.0, v_reset=0.0, detach_reset=True, tau=2.0, backend=cupy
          (surrogate_function): Sigmoid(alpha=4.0, spiking=True)
        )
        (k_conv): Conv1d(768, 768, kernel_size=(1,), stride=(1,), bias=False)
        (k_bn): BatchNorm1d(768, eps=1e-05, momentum=0.1, affine=True, track_running_stats=True)
        (k_lif): MultiStepLIFNode(
          v_threshold=1.0, v_reset=0.0, detach_reset=True, tau=2.0, backend=cupy
          (surrogate_function): Sigmoid(alpha=4.0, spiking=True)
        )
        (v_conv): Conv1d(768, 768, kernel_size=(1,), stride=(1,), bias=False)
        (v_bn): BatchNorm1d(768, eps=1e-05, momentum=0.1, affine=True, track_running_stats=True)
        (v_lif): MultiStepLIFNode(
          v_threshold=1.0, v_reset=0.0, detach_reset=True, tau=2.0, backend=cupy
          (surrogate_function): Sigmoid(alpha=4.0, spiking=True)
        )
        (attn_lif): MultiStepLIFNode(
          v_threshold=0.5, v_reset=0.0, detach_reset=True, tau=2.0, backend=cupy
          (surrogate_function): Sigmoid(alpha=4.0, spiking=True)
        )
        (proj_conv): Conv1d(768, 768, kernel_size=(1,), stride=(1,))
        (proj_bn): BatchNorm1d(768, eps=1e-05, momentum=0.1, affine=True, track_running_stats=True)
        (proj_lif): MultiStepLIFNode(
          v_threshold=1.0, v_reset=0.0, detach_reset=True, tau=2.0, backend=cupy
          (surrogate_function): Sigmoid(alpha=4.0, spiking=True)
        )
        (qkv_mp): MaxPool1d(kernel_size=4, stride=4, padding=0, dilation=1, ceil_mode=False)
      )
      (mlp): MLP(
        (fc1_conv): Conv2d(768, 3072, kernel_size=(1, 1), stride=(1, 1))
        (fc1_bn): BatchNorm2d(3072, eps=1e-05, momentum=0.1, affine=True, track_running_stats=True)
        (fc1_lif): MultiStepLIFNode(
          v_threshold=1.0, v_reset=0.0, detach_reset=True, tau=2.0, backend=cupy
          (surrogate_function): Sigmoid(alpha=4.0, spiking=True)
        )
        (fc2_conv): Conv2d(3072, 768, kernel_size=(1, 1), stride=(1, 1))
        (fc2_bn): BatchNorm2d(768, eps=1e-05, momentum=0.1, affine=True, track_running_stats=True)
        (fc2_lif): MultiStepLIFNode(
          v_threshold=1.0, v_reset=0.0, detach_reset=True, tau=2.0, backend=cupy
          (surrogate_function): Sigmoid(alpha=4.0, spiking=True)
        )
      )
    )
    (4): SpikingTransformer(
      (attn): Spiking_Self_Attention(
        (q_conv): Conv1d(768, 768, kernel_size=(1,), stride=(1,), bias=False)
        (q_bn): BatchNorm1d(768, eps=1e-05, momentum=0.1, affine=True, track_running_stats=True)
        (q_lif): MultiStepLIFNode(
          v_threshold=1.0, v_reset=0.0, detach_reset=True, tau=2.0, backend=cupy
          (surrogate_function): Sigmoid(alpha=4.0, spiking=True)
        )
        (k_conv): Conv1d(768, 768, kernel_size=(1,), stride=(1,), bias=False)
        (k_bn): BatchNorm1d(768, eps=1e-05, momentum=0.1, affine=True, track_running_stats=True)
        (k_lif): MultiStepLIFNode(
          v_threshold=1.0, v_reset=0.0, detach_reset=True, tau=2.0, backend=cupy
          (surrogate_function): Sigmoid(alpha=4.0, spiking=True)
        )
        (v_conv): Conv1d(768, 768, kernel_size=(1,), stride=(1,), bias=False)
        (v_bn): BatchNorm1d(768, eps=1e-05, momentum=0.1, affine=True, track_running_stats=True)
        (v_lif): MultiStepLIFNode(
          v_threshold=1.0, v_reset=0.0, detach_reset=True, tau=2.0, backend=cupy
          (surrogate_function): Sigmoid(alpha=4.0, spiking=True)
        )
        (attn_lif): MultiStepLIFNode(
          v_threshold=0.5, v_reset=0.0, detach_reset=True, tau=2.0, backend=cupy
          (surrogate_function): Sigmoid(alpha=4.0, spiking=True)
        )
        (proj_conv): Conv1d(768, 768, kernel_size=(1,), stride=(1,))
        (proj_bn): BatchNorm1d(768, eps=1e-05, momentum=0.1, affine=True, track_running_stats=True)
        (proj_lif): MultiStepLIFNode(
          v_threshold=1.0, v_reset=0.0, detach_reset=True, tau=2.0, backend=cupy
          (surrogate_function): Sigmoid(alpha=4.0, spiking=True)
        )
        (qkv_mp): MaxPool1d(kernel_size=4, stride=4, padding=0, dilation=1, ceil_mode=False)
      )
      (mlp): MLP(
        (fc1_conv): Conv2d(768, 3072, kernel_size=(1, 1), stride=(1, 1))
        (fc1_bn): BatchNorm2d(3072, eps=1e-05, momentum=0.1, affine=True, track_running_stats=True)
        (fc1_lif): MultiStepLIFNode(
          v_threshold=1.0, v_reset=0.0, detach_reset=True, tau=2.0, backend=cupy
          (surrogate_function): Sigmoid(alpha=4.0, spiking=True)
        )
        (fc2_conv): Conv2d(3072, 768, kernel_size=(1, 1), stride=(1, 1))
        (fc2_bn): BatchNorm2d(768, eps=1e-05, momentum=0.1, affine=True, track_running_stats=True)
        (fc2_lif): MultiStepLIFNode(
          v_threshold=1.0, v_reset=0.0, detach_reset=True, tau=2.0, backend=cupy
          (surrogate_function): Sigmoid(alpha=4.0, spiking=True)
        )
      )
    )
    (5): SpikingTransformer(
      (attn): Spiking_Self_Attention(
        (q_conv): Conv1d(768, 768, kernel_size=(1,), stride=(1,), bias=False)
        (q_bn): BatchNorm1d(768, eps=1e-05, momentum=0.1, affine=True, track_running_stats=True)
        (q_lif): MultiStepLIFNode(
          v_threshold=1.0, v_reset=0.0, detach_reset=True, tau=2.0, backend=cupy
          (surrogate_function): Sigmoid(alpha=4.0, spiking=True)
        )
        (k_conv): Conv1d(768, 768, kernel_size=(1,), stride=(1,), bias=False)
        (k_bn): BatchNorm1d(768, eps=1e-05, momentum=0.1, affine=True, track_running_stats=True)
        (k_lif): MultiStepLIFNode(
          v_threshold=1.0, v_reset=0.0, detach_reset=True, tau=2.0, backend=cupy
          (surrogate_function): Sigmoid(alpha=4.0, spiking=True)
        )
        (v_conv): Conv1d(768, 768, kernel_size=(1,), stride=(1,), bias=False)
        (v_bn): BatchNorm1d(768, eps=1e-05, momentum=0.1, affine=True, track_running_stats=True)
        (v_lif): MultiStepLIFNode(
          v_threshold=1.0, v_reset=0.0, detach_reset=True, tau=2.0, backend=cupy
          (surrogate_function): Sigmoid(alpha=4.0, spiking=True)
        )
        (attn_lif): MultiStepLIFNode(
          v_threshold=0.5, v_reset=0.0, detach_reset=True, tau=2.0, backend=cupy
          (surrogate_function): Sigmoid(alpha=4.0, spiking=True)
        )
        (proj_conv): Conv1d(768, 768, kernel_size=(1,), stride=(1,))
        (proj_bn): BatchNorm1d(768, eps=1e-05, momentum=0.1, affine=True, track_running_stats=True)
        (proj_lif): MultiStepLIFNode(
          v_threshold=1.0, v_reset=0.0, detach_reset=True, tau=2.0, backend=cupy
          (surrogate_function): Sigmoid(alpha=4.0, spiking=True)
        )
        (qkv_mp): MaxPool1d(kernel_size=4, stride=4, padding=0, dilation=1, ceil_mode=False)
      )
      (mlp): MLP(
        (fc1_conv): Conv2d(768, 3072, kernel_size=(1, 1), stride=(1, 1))
        (fc1_bn): BatchNorm2d(3072, eps=1e-05, momentum=0.1, affine=True, track_running_stats=True)
        (fc1_lif): MultiStepLIFNode(
          v_threshold=1.0, v_reset=0.0, detach_reset=True, tau=2.0, backend=cupy
          (surrogate_function): Sigmoid(alpha=4.0, spiking=True)
        )
        (fc2_conv): Conv2d(3072, 768, kernel_size=(1, 1), stride=(1, 1))
        (fc2_bn): BatchNorm2d(768, eps=1e-05, momentum=0.1, affine=True, track_running_stats=True)
        (fc2_lif): MultiStepLIFNode(
          v_threshold=1.0, v_reset=0.0, detach_reset=True, tau=2.0, backend=cupy
          (surrogate_function): Sigmoid(alpha=4.0, spiking=True)
        )
      )
    )
    (6): SpikingTransformer(
      (attn): Spiking_Self_Attention(
        (q_conv): Conv1d(768, 768, kernel_size=(1,), stride=(1,), bias=False)
        (q_bn): BatchNorm1d(768, eps=1e-05, momentum=0.1, affine=True, track_running_stats=True)
        (q_lif): MultiStepLIFNode(
          v_threshold=1.0, v_reset=0.0, detach_reset=True, tau=2.0, backend=cupy
          (surrogate_function): Sigmoid(alpha=4.0, spiking=True)
        )
        (k_conv): Conv1d(768, 768, kernel_size=(1,), stride=(1,), bias=False)
        (k_bn): BatchNorm1d(768, eps=1e-05, momentum=0.1, affine=True, track_running_stats=True)
        (k_lif): MultiStepLIFNode(
          v_threshold=1.0, v_reset=0.0, detach_reset=True, tau=2.0, backend=cupy
          (surrogate_function): Sigmoid(alpha=4.0, spiking=True)
        )
        (v_conv): Conv1d(768, 768, kernel_size=(1,), stride=(1,), bias=False)
        (v_bn): BatchNorm1d(768, eps=1e-05, momentum=0.1, affine=True, track_running_stats=True)
        (v_lif): MultiStepLIFNode(
          v_threshold=1.0, v_reset=0.0, detach_reset=True, tau=2.0, backend=cupy
          (surrogate_function): Sigmoid(alpha=4.0, spiking=True)
        )
        (attn_lif): MultiStepLIFNode(
          v_threshold=0.5, v_reset=0.0, detach_reset=True, tau=2.0, backend=cupy
          (surrogate_function): Sigmoid(alpha=4.0, spiking=True)
        )
        (proj_conv): Conv1d(768, 768, kernel_size=(1,), stride=(1,))
        (proj_bn): BatchNorm1d(768, eps=1e-05, momentum=0.1, affine=True, track_running_stats=True)
        (proj_lif): MultiStepLIFNode(
          v_threshold=1.0, v_reset=0.0, detach_reset=True, tau=2.0, backend=cupy
          (surrogate_function): Sigmoid(alpha=4.0, spiking=True)
        )
        (qkv_mp): MaxPool1d(kernel_size=4, stride=4, padding=0, dilation=1, ceil_mode=False)
      )
      (mlp): MLP(
        (fc1_conv): Conv2d(768, 3072, kernel_size=(1, 1), stride=(1, 1))
        (fc1_bn): BatchNorm2d(3072, eps=1e-05, momentum=0.1, affine=True, track_running_stats=True)
        (fc1_lif): MultiStepLIFNode(
          v_threshold=1.0, v_reset=0.0, detach_reset=True, tau=2.0, backend=cupy
          (surrogate_function): Sigmoid(alpha=4.0, spiking=True)
        )
        (fc2_conv): Conv2d(3072, 768, kernel_size=(1, 1), stride=(1, 1))
        (fc2_bn): BatchNorm2d(768, eps=1e-05, momentum=0.1, affine=True, track_running_stats=True)
        (fc2_lif): MultiStepLIFNode(
          v_threshold=1.0, v_reset=0.0, detach_reset=True, tau=2.0, backend=cupy
          (surrogate_function): Sigmoid(alpha=4.0, spiking=True)
        )
      )
    )
  )
  (head): Linear(in_features=768, out_features=1000, bias=True)
)
[09:32:57.380509] number of params (M): 64.96
[09:32:57.380532] base lr: 6.00e-04
[09:32:57.380593] actual lr: 1.35e-03
[09:32:57.380603] accumulate grad iterations: 3
[09:32:57.380613] effective batch size: 576
[09:32:57.614407] criterion = LabelSmoothingCrossEntropy()
[09:32:57.614477] Start training for 200 epochs
[09:32:57.616024] log_dir: ./output_dir_qkformer
…
